{"format": "torch", "nodes": [{"name": "transformer", "id": 2272037903608, "class_name": "GPT2Model(\n  (wte): Embedding(50257, 768)\n  (wpe): Embedding(1024, 768)\n  (drop): Dropout(p=0.1, inplace=False)\n  (h): ModuleList(\n    (0): Block(\n      (ln_1): LayerNorm((768,), eps=1e-05, elementwise_affine=True)\n      (attn): Attention(\n        (c_attn): Conv1D()\n        (c_proj): Conv1D()\n        (attn_dropout): Dropout(p=0.1, inplace=False)\n        (resid_dropout): Dropout(p=0.1, inplace=False)\n      )\n      (ln_2): LayerNorm((768,), eps=1e-05, elementwise_affine=True)\n      (mlp): MLP(\n        (c_fc): Conv1D()\n        (c_proj): Conv1D()\n        (dropout): Dropout(p=0.1, inplace=False)\n      )\n    )\n    (1): Block(\n      (ln_1): LayerNorm((768,), eps=1e-05, elementwise_affine=True)\n      (attn): Attention(\n        (c_attn): Conv1D()\n        (c_proj): Conv1D()\n        (attn_dropout): Dropout(p=0.1, inplace=False)\n        (resid_dropout): Dropout(p=0.1, inplace=False)\n      )\n      (ln_2): LayerNorm((768,), eps=1e-05, elementwise_affine=True)\n      (mlp): MLP(\n        (c_fc): Conv1D()\n        (c_proj): Conv1D()\n        (dropout): Dropout(p=0.1, inplace=False)\n      )\n    )\n    (2): Block(\n      (ln_1): LayerNorm((768,), eps=1e-05, elementwise_affine=True)\n      (attn): Attention(\n        (c_attn): Conv1D()\n        (c_proj): Conv1D()\n        (attn_dropout): Dropout(p=0.1, inplace=False)\n        (resid_dropout): Dropout(p=0.1, inplace=False)\n      )\n      (ln_2): LayerNorm((768,), eps=1e-05, elementwise_affine=True)\n      (mlp): MLP(\n        (c_fc): Conv1D()\n        (c_proj): Conv1D()\n        (dropout): Dropout(p=0.1, inplace=False)\n      )\n    )\n    (3): Block(\n      (ln_1): LayerNorm((768,), eps=1e-05, elementwise_affine=True)\n      (attn): Attention(\n        (c_attn): Conv1D()\n        (c_proj): Conv1D()\n        (attn_dropout): Dropout(p=0.1, inplace=False)\n        (resid_dropout): Dropout(p=0.1, inplace=False)\n      )\n      (ln_2): LayerNorm((768,), eps=1e-05, elementwise_affine=True)\n      (mlp): MLP(\n        (c_fc): Conv1D()\n        (c_proj): Conv1D()\n        (dropout): Dropout(p=0.1, inplace=False)\n      )\n    )\n    (4): Block(\n      (ln_1): LayerNorm((768,), eps=1e-05, elementwise_affine=True)\n      (attn): Attention(\n        (c_attn): Conv1D()\n        (c_proj): Conv1D()\n        (attn_dropout): Dropout(p=0.1, inplace=False)\n        (resid_dropout): Dropout(p=0.1, inplace=False)\n      )\n      (ln_2): LayerNorm((768,), eps=1e-05, elementwise_affine=True)\n      (mlp): MLP(\n        (c_fc): Conv1D()\n        (c_proj): Conv1D()\n        (dropout): Dropout(p=0.1, inplace=False)\n      )\n    )\n    (5): Block(\n      (ln_1): LayerNorm((768,), eps=1e-05, elementwise_affine=True)\n      (attn): Attention(\n        (c_attn): Conv1D()\n        (c_proj): Conv1D()\n        (attn_dropout): Dropout(p=0.1, inplace=False)\n        (resid_dropout): Dropout(p=0.1, inplace=False)\n      )\n      (ln_2): LayerNorm((768,), eps=1e-05, elementwise_affine=True)\n      (mlp): MLP(\n        (c_fc): Conv1D()\n        (c_proj): Conv1D()\n        (dropout): Dropout(p=0.1, inplace=False)\n      )\n    )\n    (6): Block(\n      (ln_1): LayerNorm((768,), eps=1e-05, elementwise_affine=True)\n      (attn): Attention(\n        (c_attn): Conv1D()\n        (c_proj): Conv1D()\n        (attn_dropout): Dropout(p=0.1, inplace=False)\n        (resid_dropout): Dropout(p=0.1, inplace=False)\n      )\n      (ln_2): LayerNorm((768,), eps=1e-05, elementwise_affine=True)\n      (mlp): MLP(\n        (c_fc): Conv1D()\n        (c_proj): Conv1D()\n        (dropout): Dropout(p=0.1, inplace=False)\n      )\n    )\n    (7): Block(\n      (ln_1): LayerNorm((768,), eps=1e-05, elementwise_affine=True)\n      (attn): Attention(\n        (c_attn): Conv1D()\n        (c_proj): Conv1D()\n        (attn_dropout): Dropout(p=0.1, inplace=False)\n        (resid_dropout): Dropout(p=0.1, inplace=False)\n      )\n      (ln_2): LayerNorm((768,), eps=1e-05, elementwise_affine=True)\n      (mlp): MLP(\n        (c_fc): Conv1D()\n        (c_proj): Conv1D()\n        (dropout): Dropout(p=0.1, inplace=False)\n      )\n    )\n    (8): Block(\n      (ln_1): LayerNorm((768,), eps=1e-05, elementwise_affine=True)\n      (attn): Attention(\n        (c_attn): Conv1D()\n        (c_proj): Conv1D()\n        (attn_dropout): Dropout(p=0.1, inplace=False)\n        (resid_dropout): Dropout(p=0.1, inplace=False)\n      )\n      (ln_2): LayerNorm((768,), eps=1e-05, elementwise_affine=True)\n      (mlp): MLP(\n        (c_fc): Conv1D()\n        (c_proj): Conv1D()\n        (dropout): Dropout(p=0.1, inplace=False)\n      )\n    )\n    (9): Block(\n      (ln_1): LayerNorm((768,), eps=1e-05, elementwise_affine=True)\n      (attn): Attention(\n        (c_attn): Conv1D()\n        (c_proj): Conv1D()\n        (attn_dropout): Dropout(p=0.1, inplace=False)\n        (resid_dropout): Dropout(p=0.1, inplace=False)\n      )\n      (ln_2): LayerNorm((768,), eps=1e-05, elementwise_affine=True)\n      (mlp): MLP(\n        (c_fc): Conv1D()\n        (c_proj): Conv1D()\n        (dropout): Dropout(p=0.1, inplace=False)\n      )\n    )\n    (10): Block(\n      (ln_1): LayerNorm((768,), eps=1e-05, elementwise_affine=True)\n      (attn): Attention(\n        (c_attn): Conv1D()\n        (c_proj): Conv1D()\n        (attn_dropout): Dropout(p=0.1, inplace=False)\n        (resid_dropout): Dropout(p=0.1, inplace=False)\n      )\n      (ln_2): LayerNorm((768,), eps=1e-05, elementwise_affine=True)\n      (mlp): MLP(\n        (c_fc): Conv1D()\n        (c_proj): Conv1D()\n        (dropout): Dropout(p=0.1, inplace=False)\n      )\n    )\n    (11): Block(\n      (ln_1): LayerNorm((768,), eps=1e-05, elementwise_affine=True)\n      (attn): Attention(\n        (c_attn): Conv1D()\n        (c_proj): Conv1D()\n        (attn_dropout): Dropout(p=0.1, inplace=False)\n        (resid_dropout): Dropout(p=0.1, inplace=False)\n      )\n      (ln_2): LayerNorm((768,), eps=1e-05, elementwise_affine=True)\n      (mlp): MLP(\n        (c_fc): Conv1D()\n        (c_proj): Conv1D()\n        (dropout): Dropout(p=0.1, inplace=False)\n      )\n    )\n  )\n  (ln_f): LayerNorm((768,), eps=1e-05, elementwise_affine=True)\n)", "parameters": [], "output_shape": [[1, 1024, 768], [[2, 1, 12, 1024, 64], [2, 1, 12, 1024, 64], [2, 1, 12, 1024, 64], [2, 1, 12, 1024, 64], [2, 1, 12, 1024, 64], [2, 1, 12, 1024, 64], [2, 1, 12, 1024, 64], [2, 1, 12, 1024, 64], [2, 1, 12, 1024, 64], [2, 1, 12, 1024, 64], [2, 1, 12, 1024, 64], [2, 1, 12, 1024, 64]]], "num_parameters": []}, {"name": "lm_head", "id": 2272060326016, "class_name": "Linear(in_features=768, out_features=50257, bias=False)", "parameters": [], "output_shape": [[1, 1024, 50257]], "num_parameters": []}, {"name": "transformer", "id": 2272037903720, "class_name": "GPT2Model(\n  (wte): Embedding(50257, 768)\n  (wpe): Embedding(1024, 768)\n  (drop): Dropout(p=0.1, inplace=False)\n  (h): ModuleList(\n    (0): Block(\n      (ln_1): LayerNorm((768,), eps=1e-05, elementwise_affine=True)\n      (attn): Attention(\n        (c_attn): Conv1D()\n        (c_proj): Conv1D()\n        (attn_dropout): Dropout(p=0.1, inplace=False)\n        (resid_dropout): Dropout(p=0.1, inplace=False)\n      )\n      (ln_2): LayerNorm((768,), eps=1e-05, elementwise_affine=True)\n      (mlp): MLP(\n        (c_fc): Conv1D()\n        (c_proj): Conv1D()\n        (dropout): Dropout(p=0.1, inplace=False)\n      )\n    )\n    (1): Block(\n      (ln_1): LayerNorm((768,), eps=1e-05, elementwise_affine=True)\n      (attn): Attention(\n        (c_attn): Conv1D()\n        (c_proj): Conv1D()\n        (attn_dropout): Dropout(p=0.1, inplace=False)\n        (resid_dropout): Dropout(p=0.1, inplace=False)\n      )\n      (ln_2): LayerNorm((768,), eps=1e-05, elementwise_affine=True)\n      (mlp): MLP(\n        (c_fc): Conv1D()\n        (c_proj): Conv1D()\n        (dropout): Dropout(p=0.1, inplace=False)\n      )\n    )\n    (2): Block(\n      (ln_1): LayerNorm((768,), eps=1e-05, elementwise_affine=True)\n      (attn): Attention(\n        (c_attn): Conv1D()\n        (c_proj): Conv1D()\n        (attn_dropout): Dropout(p=0.1, inplace=False)\n        (resid_dropout): Dropout(p=0.1, inplace=False)\n      )\n      (ln_2): LayerNorm((768,), eps=1e-05, elementwise_affine=True)\n      (mlp): MLP(\n        (c_fc): Conv1D()\n        (c_proj): Conv1D()\n        (dropout): Dropout(p=0.1, inplace=False)\n      )\n    )\n    (3): Block(\n      (ln_1): LayerNorm((768,), eps=1e-05, elementwise_affine=True)\n      (attn): Attention(\n        (c_attn): Conv1D()\n        (c_proj): Conv1D()\n        (attn_dropout): Dropout(p=0.1, inplace=False)\n        (resid_dropout): Dropout(p=0.1, inplace=False)\n      )\n      (ln_2): LayerNorm((768,), eps=1e-05, elementwise_affine=True)\n      (mlp): MLP(\n        (c_fc): Conv1D()\n        (c_proj): Conv1D()\n        (dropout): Dropout(p=0.1, inplace=False)\n      )\n    )\n    (4): Block(\n      (ln_1): LayerNorm((768,), eps=1e-05, elementwise_affine=True)\n      (attn): Attention(\n        (c_attn): Conv1D()\n        (c_proj): Conv1D()\n        (attn_dropout): Dropout(p=0.1, inplace=False)\n        (resid_dropout): Dropout(p=0.1, inplace=False)\n      )\n      (ln_2): LayerNorm((768,), eps=1e-05, elementwise_affine=True)\n      (mlp): MLP(\n        (c_fc): Conv1D()\n        (c_proj): Conv1D()\n        (dropout): Dropout(p=0.1, inplace=False)\n      )\n    )\n    (5): Block(\n      (ln_1): LayerNorm((768,), eps=1e-05, elementwise_affine=True)\n      (attn): Attention(\n        (c_attn): Conv1D()\n        (c_proj): Conv1D()\n        (attn_dropout): Dropout(p=0.1, inplace=False)\n        (resid_dropout): Dropout(p=0.1, inplace=False)\n      )\n      (ln_2): LayerNorm((768,), eps=1e-05, elementwise_affine=True)\n      (mlp): MLP(\n        (c_fc): Conv1D()\n        (c_proj): Conv1D()\n        (dropout): Dropout(p=0.1, inplace=False)\n      )\n    )\n    (6): Block(\n      (ln_1): LayerNorm((768,), eps=1e-05, elementwise_affine=True)\n      (attn): Attention(\n        (c_attn): Conv1D()\n        (c_proj): Conv1D()\n        (attn_dropout): Dropout(p=0.1, inplace=False)\n        (resid_dropout): Dropout(p=0.1, inplace=False)\n      )\n      (ln_2): LayerNorm((768,), eps=1e-05, elementwise_affine=True)\n      (mlp): MLP(\n        (c_fc): Conv1D()\n        (c_proj): Conv1D()\n        (dropout): Dropout(p=0.1, inplace=False)\n      )\n    )\n    (7): Block(\n      (ln_1): LayerNorm((768,), eps=1e-05, elementwise_affine=True)\n      (attn): Attention(\n        (c_attn): Conv1D()\n        (c_proj): Conv1D()\n        (attn_dropout): Dropout(p=0.1, inplace=False)\n        (resid_dropout): Dropout(p=0.1, inplace=False)\n      )\n      (ln_2): LayerNorm((768,), eps=1e-05, elementwise_affine=True)\n      (mlp): MLP(\n        (c_fc): Conv1D()\n        (c_proj): Conv1D()\n        (dropout): Dropout(p=0.1, inplace=False)\n      )\n    )\n    (8): Block(\n      (ln_1): LayerNorm((768,), eps=1e-05, elementwise_affine=True)\n      (attn): Attention(\n        (c_attn): Conv1D()\n        (c_proj): Conv1D()\n        (attn_dropout): Dropout(p=0.1, inplace=False)\n        (resid_dropout): Dropout(p=0.1, inplace=False)\n      )\n      (ln_2): LayerNorm((768,), eps=1e-05, elementwise_affine=True)\n      (mlp): MLP(\n        (c_fc): Conv1D()\n        (c_proj): Conv1D()\n        (dropout): Dropout(p=0.1, inplace=False)\n      )\n    )\n    (9): Block(\n      (ln_1): LayerNorm((768,), eps=1e-05, elementwise_affine=True)\n      (attn): Attention(\n        (c_attn): Conv1D()\n        (c_proj): Conv1D()\n        (attn_dropout): Dropout(p=0.1, inplace=False)\n        (resid_dropout): Dropout(p=0.1, inplace=False)\n      )\n      (ln_2): LayerNorm((768,), eps=1e-05, elementwise_affine=True)\n      (mlp): MLP(\n        (c_fc): Conv1D()\n        (c_proj): Conv1D()\n        (dropout): Dropout(p=0.1, inplace=False)\n      )\n    )\n    (10): Block(\n      (ln_1): LayerNorm((768,), eps=1e-05, elementwise_affine=True)\n      (attn): Attention(\n        (c_attn): Conv1D()\n        (c_proj): Conv1D()\n        (attn_dropout): Dropout(p=0.1, inplace=False)\n        (resid_dropout): Dropout(p=0.1, inplace=False)\n      )\n      (ln_2): LayerNorm((768,), eps=1e-05, elementwise_affine=True)\n      (mlp): MLP(\n        (c_fc): Conv1D()\n        (c_proj): Conv1D()\n        (dropout): Dropout(p=0.1, inplace=False)\n      )\n    )\n    (11): Block(\n      (ln_1): LayerNorm((768,), eps=1e-05, elementwise_affine=True)\n      (attn): Attention(\n        (c_attn): Conv1D()\n        (c_proj): Conv1D()\n        (attn_dropout): Dropout(p=0.1, inplace=False)\n        (resid_dropout): Dropout(p=0.1, inplace=False)\n      )\n      (ln_2): LayerNorm((768,), eps=1e-05, elementwise_affine=True)\n      (mlp): MLP(\n        (c_fc): Conv1D()\n        (c_proj): Conv1D()\n        (dropout): Dropout(p=0.1, inplace=False)\n      )\n    )\n  )\n  (ln_f): LayerNorm((768,), eps=1e-05, elementwise_affine=True)\n)", "parameters": [], "output_shape": [[1, 1024, 768], [[2, 1, 12, 1024, 64], [2, 1, 12, 1024, 64], [2, 1, 12, 1024, 64], [2, 1, 12, 1024, 64], [2, 1, 12, 1024, 64], [2, 1, 12, 1024, 64], [2, 1, 12, 1024, 64], [2, 1, 12, 1024, 64], [2, 1, 12, 1024, 64], [2, 1, 12, 1024, 64], [2, 1, 12, 1024, 64], [2, 1, 12, 1024, 64]]], "num_parameters": []}, {"name": "
…
